MNIST_corrupt/models/model.pt (torch, 378536 bytes, 8 tensors)

conv1.weight f4 [32, 1, 3, 3]
00000000: 4a3d 32bd 1db6 8abd ceb3 d63d 9f51 803e
00000010: 908a 6a3e a1fe 9dbd bba9 3abd 32bb ab3e
00000020: 0533 f0be 3a09 2abf ca98 bcbe 0260 08bd
00000030: aca9 f2be fa74 3b3c fe5e d13e d817 a9be
00000040: f85e 86be d986 fb3e 15b0 9cbe 6198 823e
00000050: 891a cdbd 8cde 60be 00e0 d4be c312 89be
00000060: 4f20 b039 686a 8f3e 0a81 13be 12fa 8fbd
00000070: f969 dabe 7793 89bd 81a9 793d 1c0b f4be
00000080: 8d7a eebe 1364 be3e 5ef2 583e 2405 01bf
00000090: 9cb0 abbd b4d7 e7be 26f5 9a3d c369 41bb
000000a0: c50c 2cbd 5c8a b53d c451 86be 1f76 72be
000000b0: 4e22 923e 56db 813c c3b9 54be 70ee 45be
000000c0: f2f9 8dbe 1349 07be 00e4 75bb a310 44be
000000d0: 56cd c6bd a3c8 5dbe 8c51 7f3e d49b 8fbd
000000e0: ddcf 663e 3c58 c63e d3fb 89bd 05c3 41be
000000f0: f6f2 263e 110e d5be 10d4 1cbf 8561 4e3e
00000100: 4726 7f3d 554d d8bd 5ab1 863e 6dab 81be
00000110: 0d80 c1be 7c23 d83e 3df5 a83d e8d6 1e3e
00000120: 8c5f 4ebd 1142 cb3e fd3d 883e 1bc3 18be
00000130: 1505 8cbd 4d68 f83e 48bf acbe f5ef 33bf
00000140: f584 c0be 392f 7ebe 44c8 63be 67a8 9f3d
00000150: 5a37 193d 3cd3 f63d 24d2 13be 19b3 953d
00000160: 5aa7 92be 0e28 a9be 0320 be3e fad2 843d
00000170: 5d19 133f fadb 4dbe c288 33be ef38 bcbd
00000180: fc6f d7be 678a aebe 3849 0bbf 47b6 ad3c
00000190: 60da 7dbe ea62 0ebf b4c4 63be fb68 9f3c
000001a0: 40a3 80be 9274 b3bd 3124 52be a1d0 bbbe
000001b0: 9caa 833e 3512 fcbc dd45 01bf ce24 953e
000001c0: 743f fabd 5d66 bfbe 237a 4c3e 21f4 953e
000001d0: a050 b53e e83d 8ebc fa06 203e da7a 07bf
000001e0: b9cc c9be a196 783e dcd1 8f3e df50 17bd
000001f0: 3aa6 a9bc 80aa fbbd a22d dabe 27a4 b1be
00000200: a087 94be c805 d0bd 9798 65bc 0137 833e
00000210: c1f8 423e 22da 9e3e 6f79 9cbe 198b 763e
00000220: a302 6c3e 3cda b3be 12b4 993e 6980 93be
00000230: 757b 20be e1d9 603e b4a9 a63d 9733 0fbf
00000240: 6634 14bd 8664 603d 9679 1d3e d615 43be
00000250: 297c 073e fdc8 713e a95c f7be b92d 8fbe
00000260: fcc1 803e 43ef 7bbe 695b ff3d 0180 103e
00000270: c7c3 76be caae fbbd d896 8fbe 1d77 bcbe
00000280: 5c51 033e b87a 1c3e 129f e9bd c4cc 5d3e
00000290: 2f7c ed3d 901b c63d e2c4 313c 9d77 a5be
000002a0: 62b8 5f3e 5123 47be 6fb6 1dbf e397 083e
000002b0: bf3c 013d c561 b53e b88f 07bf cd41 dfbd
000002c0: 0899 12be aaae 0dbf d75a 84be 1922 9cbd
000002d0: a79f 8ebe 2c6f 75bd 9d8a ed3e 813c a7be
000002e0: 0eda 46bf e6a6 283e 4947 fb3e c45e ccbe
000002f0: 74ee 5bbf 6e26 a5be 0dd7 9abd 48a1 4e3e
00000300: b9d1 e3be 06a4 a3be ae8b 9f3c 7820 98be
00000310: 7c1c b8be 5886 4bbf 18df 27bf 15ee 003e
00000320: e53a ddbd d9e0 c6be 6601 f83e 0616 f1be
00000330: b695 c9bd 652d 7f3e 3431 ffbe c585 533e
00000340: 8edb e53d a7c8 183d 8281 b6be 6bbb cc3d
00000350: 14cb 8d3e 8dc7 a4be 18bf 87bd 1abe af3e
00000360: 6b91 98bd 3108 2cbf 6860 41bf bc21 f83e
00000370: 03ac 7dbe d823 55be 0167 e53e c6d6 a13d
00000380: ff0a 2abf 848f 7bbd 3d5b 89bd 9e5c ffbe
00000390: 87bb 5a3e e156 cc3e 97d6 aa3e e81a 81be
000003a0: 20b7 b0be f9be 543e 75e6 233d 59a3 a63e
000003b0: ec04 6f3d 5161 b53e d15a a4be 748b bf3e
000003c0: 88f2 93be ca4b 01bf 6bba 82be 6485 223e
000003d0: 8801 06bf 77ef ccbe 9fdf 6c3e 6599 33be
000003e0: 10b8 06bf 4c50 803e de84 0a3f 88d7 093e
000003f0: 269b 153e 962c 763e 6677 53bf 7c69 613d
-0.04351548 -0.067730166 0.10483514 0.25062272 0.2290442 -0.07714582 -0.045572024 0.33541256
-0.46913925 -0.6642033 -0.3683532 -0.033294685 -0.47395074 0.011441464 0.40892786 -0.33026004
-0.2624433 0.49126318 -0.3060309 0.2550688 -0.10014827 -0.21959895 -0.41577148 -0.26772127
0.00033593408 0.2801087 -0.14404693 -0.07030119 -0.42658976 -0.0671758 0.060952667 -0.47664726
-0.46577874 0.37185726 0.21186206 -0.5039847 -0.08383295 -0.45281756 0.075662896 -0.0029512502
-0.042004365 0.088642806 -0.26234257 -0.23677872 0.28541797 0.015851658 -0.20773987 -0.19329238
-0.27729756 -0.1321147 -0.0037519932 -0.19146971 -0.097071335 -0.21658568 0.24933451 -0.07012144
0.22540231 0.38739192 -0.06737485 -0.1892205 0.1630362 -0.41612294 -0.6126108 0.20154388
0.062292363 -0.10561625 0.26307184 -0.253261 -0.37793007 0.42214572 0.082499005 0.15511668
-0.05038409 0.39698842 0.26609793 -0.14918177 -0.06836907 0.48517075 -0.33739686 -0.7028802
-0.37601438 -0.24822702 -0.22244364 0.07795792 0.037406303 0.120520085 -0.14435631 0.07309551
-0.28643304 -0.33038372 0.37133798 0.06485553 0.57460576 -0.20103446 -0.17532638 -0.09190547
-0.42077625 -0.34089968 -0.544086 0.02120508 -0.24790335 -0.5561968 -0.22243005 0.019459238
-0.2512455 -0.087624684 -0.20521618 -0.3668261 0.25716102 -0.0307704 -0.5049723 0.29129642
-0.12219134 -0.37382784 0.19968466 0.29287818 0.35413074 -0.017363504 0.15627661 -0.5292183
-0.39414003 0.2427621 0.28089797 -0.03694236 -0.020709146 -0.1228838 -0.4261294 -0.3469555
-0.29009724 -0.10157353 -0.014013431 0.25627902 0.19040205 0.31025797 -0.30561396 0.24076499
0.23047881 -0.35127437 0.30020195 -0.28808907 -0.15672095 0.21958114 0.08137837 -0.55938095
-0.036182784 0.054783367 0.15378413 -0.19051298 0.13230957 0.23611827 -0.48312882 -0.2796457
0.25147998 -0.2460299 0.12468607 0.1411133 -0.2409812 -0.12289198 -0.28044772 -0.36809626
0.12824005 0.15281188 -0.114072934 0.21660143 0.11595952 0.09673226 0.010850163 -0.3231782
0.2184768 -0.19447066 -0.61606497 0.1333919 0.031552073 0.35426155 -0.5295367 -0.109012224
-0.1431619 -0.5534464 -0.25850555 -0.07623691 -0.2785618 -0.059920475 0.46394816 -0.32663348
-0.77676475 0.16469917 0.49077824 -0.3991605 -0.85910726 -0.32255882 -0.07560549 0.20178711
-0.44495943 -0.31961077 0.019475784 -0.29712272 -0.35959232 -0.7950187 -0.6557479 0.12590821
-0.10802249 -0.3884342 0.48438567 -0.47087115 -0.09843008 0.2491966 -0.49842227 0.20656498
0.11223517 0.037300732 -0.35645682 0.09996685 0.27694 -0.32183495 -0.06628245 0.34324723
-0.07449611 -0.672 -0.7553773 0.48463237 -0.24772649 -0.20814455 0.44805148 0.07902293
-0.6642303 -0.061416164 -0.067068554 -0.4987535 0.21360599 0.39910033 0.33366844 -0.2521584
-0.34514713 0.20775975 0.040014703 0.325465 0.058354303 0.3542581 -0.32100537 0.37411082
-0.28895974 -0.5050627 -0.2553285 0.15871197 -0.52346087 -0.40026447 0.2313218 -0.17538984
-0.5262461 0.25061262 0.5410899 0.13461125 0.14609966 0.24040446 -0.8260406 0.05503224

conv1.bias f4 [32]
00000000: 380b 9abe b6fd febd db73 dcbe 01db 73bd
00000010: 588f a0bd 063a 9bbe 6494 87be d29c 9ebe
00000020: 7afa f0bd 980a 8ebe 64a4 47bc af63 743e
00000030: c87f f2bd 780e 85bd 984f d0bd 771f 86be
00000040: 96f6 8ebd 80ea 51be ce55 edbd f950 3fbd
00000050: 02a1 3dbd 8fa1 bc3e c243 5dbe c17a 72bd
00000060: 14d2 88bd c737 d2bd b567 11be bae4 acbd
00000070: a1a6 6b3e 024d 82ba 7677 043d bc38 a7be
-0.30086684 -0.12450735 -0.4305714 -0.05953503 -0.07839841 -0.30317706 -0.264804 -0.3097902
-0.117665246 -0.27742457 -0.01218519 0.23866151 -0.118407786 -0.064969 -0.10171431 -0.2619588
-0.06980626 -0.20499611 -0.115886316 -0.04670808 -0.046296127 0.3684201 -0.21607879 -0.0591991
-0.06680694 -0.10264545 -0.14199717 -0.08442064 0.23012783 -0.0009941163 0.03234049 -0.32660472

conv2.weight f4 [64, 32, 3, 3]
00000000: 1a9b b7bc 0566 fe3c 6dee 6c3b ea73 cebc
00000010: 9e72 923c 527e 0bbd 0e74 1f3d 905b 853d
00000020: 8a6d 5abd 4d86 de3c 8d83 4a3c 8a90 babd
00000030: 8141 ab3c 863e abbd 9c66 2dbd d91d c0bc
00000040: b01c b5bd 8a4e 6bbd 8ed8 5dbd 0696 bcbc
00000050: 6423 e23d b179 0fbc 78ef b9bd 7071 a0bd
00000060: ce3b 333c ff82 2c3d 097a ecbc b9b4 cbbc
00000070: 15dc ae3c ee9c 8dbc 06f8 9cbd 5138 87bd
00000080: 8fa1 093d fbb0 d1bc 19e2 3e3d b9b1 9ebb
00000090: 4e83 df3b 4d1c 22bc b453 c23a c38a 5c3c
000000a0: 0e38 01bd 78b8 fbbc 9dda f9ba 8333 8fbd
000000b0: 2e34 fdbd f2f0 623d 2cfe 26bd 08c8 353d
000000c0: 263a 4c3c 892b a8bc 117e cebb c1c7 a6bb
000000d0: 7695 c13c 3177 663c 991e 97bd 8299 ebbc
000000e0: 704d 053c 1e35 abbd 8ef0 253d 7e92 63bc
000000f0: a6a4 40bd 21a9 00bd 7109 c1bd 9af4 03be
00000100: cdd5 c13c 69dd 933d 122d 59bd c16d 90bd
00000110: 8162 f2bc 4615 b5bc fb25 603d 60f4 b73b
00000120: a5b3 6c3c 0d12 b5bb 61bc f5bb 2867 59bd
00000130: ed62 09be e902 56bd f6be 4ebd 08d5 a6bd
00000140: ffcc 38bd 2aef acbd 83be 0bbe b673 f3bd
00000150: d0ec 133d 281c 7abd 73fc d63d 3881 173d
00000160: 6291 fbbd 6740 03bd 6c63 37bd 99a4 593d
00000170: 6ecd 2ebe ada6 e6bd f061 42bd 300b 433d
00000180: 8343 cdbd 4e1c 30be dd81 babd 25d1 cdbd
00000190: 8c48 16bc af5b 9dbd dc05 62bd ce26 4c3b
000001a0: 69f4 3abd e018 363c fb77 21bd 69e8 f7bc
000001b0: baf1 99bd e14e 26bd 21be 58bc 4460 cdbd
000001c0: 5729 2abd 9cde afbd e3cb 4bbc 479d ea3b
000001d0: 0b6e b5bc 1e95 3c3d 7c7b d93c 4c75 00bd
000001e0: 8ffa c03c 8588 98bc 256a 9dbd 2202 19bd
000001f0: edd4 3fbd eea0 d9bc 9713 8abc 64c2 43bd
00000200: 4e73 a1bd e1d8 3cbd e59a febc 9428 4bbd
00000210: 232f 9d3c 87c4 a9bc 1651 48bd b1df 84bd
00000220: cb4c b53d 45ec 60bc cbb0 f0bd 0ff4 a43d
00000230: d541 173d 7837 64bc e835 b93d 81f8 993d
00000240: 40b7 4b3d eea0 65bb 5bab 14be 4e3e 2abc
00000250: a9b2 31bd c024 94bd bc1e cb3b 0ef6 5ebd
00000260: 97f9 9dbd b8ec 673c 4b1d 263d 6da4 2bbd
00000270: 4096 733d a679 893c 1e75 e1bd 6899 f63c
00000280: 74ee a3bd dda5 07be d6c0 36bd c53a 253d
00000290: aa07 023d 8b63 87bc 7bf8 21bd 1d64 36bc
000002a0: 015b 10bc ea64 33bc ce16 2cbd 1303 8ebd
000002b0: e02b 9c3c 8aab 7ebd 57a9 f2bb 8723 cfbc
000002c0: 06b4 b9bd cb25 7bbd daef 8fbc bdeb 92bc
000002d0: 0822 0cbe ad7c 103c 9bb8 28bd 6622 12bc
000002e0: 2f89 eabd 0784 783d 8af4 59bd 8f2f 373d
000002f0: a6fe 45bc 3ff9 b1bd 07ca a5bd 6cc5 06be
00000300: c769 55bc 102a 70bd 8693 6bbd a73e 94bd
00000310: c10d c6bc f89d e0bd 9cd0 933d 0d9d 853d
00000320: ea0d e23c fd1b 45bc 2fad 7d3a ba24 5cbd
00000330: e6ec 40bd ca1e 8cbc 5f49 2d3d 9233 23bd
00000340: cc20 2dbd 5b91 c8bc ff78 bebc dd9c eb3c
00000350: 992d 5f3a 3f99 0a3d fe6d 523c 46bd d4bc
00000360: 48fd b9bd 9e23 613d 29be 773d 16f2 60bb
00000370: 0a98 393d 9959 4d3d 864e 6bbc 9486 6e3d
00000380: bec2 683d 8fbb cfbc ffca 9d3c 9503 82bd
00000390: 6861 91bb ea94 88bd 4255 d3bd 7742 29bd
000003a0: aee2 01be 4bb3 93bd 1d74 a5bd 30a6 7abc
000003b0: eec0 bb3b 7754 9ebd ef0e 78bd fe07 22bd
000003c0: 5578 7ebd 5aeb c5bd ad9c afbd 0d3c c3bd
000003d0: 167f 90bc 8f21 8cbd dee9 5abd 709d ebbc
000003e0: af53 e6bd eb3b 14bd 0ce3 31bd 6dc5 85bd
000003f0: 46c6 f5bd 58d0 c8bd 308b 903b 7a54 93bd
-0.022412825 0.031054506 0.0036152855 -0.025201757 0.01787692 -0.034056015 0.038929038 0.06511605
-0.05332712 0.027163649 0.012360466 -0.091096 0.020905258 -0.08361535 -0.042334184 -0.023451732
-0.08843362 -0.057447948 -0.0541616 -0.023020755 0.110419065 -0.008757041 -0.09078878 -0.078341365
0.0109395515 0.042117115 -0.028866785 -0.024866449 0.021345178 -0.017286744 -0.07664494 -0.066025384
0.03360134 -0.025597086 0.046602342 -0.0048429635 0.0068210727 -0.009894443 0.0014825971 0.013460818
-0.0315476 -0.03072761 -0.0019062344 -0.06992247 -0.12363468 0.055405565 -0.04076974 0.044380218
0.012465036 -0.020528572 -0.0063016494 -0.0050897305 0.023630839 0.014066503 -0.07378883 -0.028759722
0.008136138 -0.08359741 0.040512614 -0.013889907 -0.04703202 -0.031411294 -0.09425629 -0.12886277
0.023661518 0.07219965 -0.053021498 -0.07052184 -0.029587986 -0.02210487 0.05472372 0.0056138486
0.0144471275 -0.0055258335 -0.007499263 -0.053076893 -0.13416643 -0.05224887 -0.050475083 -0.08146101
-0.045117375 -0.084440544 -0.13646893 -0.118873045 0.036114514 -0.06106201 0.104973696 0.036988467
-0.12283589 -0.03204384 -0.04477255 0.05313549 -0.17070553 -0.1126226 -0.04745668 0.04761809
-0.100226425 -0.17198297 -0.09106801 -0.10049657 -0.00917257 -0.07683503 -0.05518137 0.003115106
-0.045643244 0.011114329 -0.039421063 -0.030262189 -0.07516809 -0.04060257 -0.013228924 -0.10028127
-0.04154333 -0.08587381 -0.012438747 0.007159862 -0.0221472 0.046040647 0.02654814 -0.031361863
0.023556976 -0.018619785 -0.07686261 -0.03735555 -0.04683392 -0.026565995 -0.016855044 -0.047792807
-0.07883321 -0.04610527 -0.031079719 -0.049599245 0.019187516 -0.020723594 -0.048905455 -0.06487978
0.08852538 -0.013728206 -0.117524706 0.08054363 0.036928017 -0.01392924 0.09043485 0.075181015
0.049735308 -0.0035038549 -0.14518492 -0.010390831 -0.043383274 -0.07233572 0.006198732 -0.054433875
-0.07713621 0.014155559 0.04055528 -0.041904856 0.05946946 0.01678164 -0.110086665 0.030102447
-0.08004466 -0.13246866 -0.044617496 0.04033925 0.03174559 -0.016526958 -0.03954361 -0.011132267
-0.0088107595 -0.010949353 -0.042013936 -0.0693418 0.01906389 -0.06217531 -0.007405441 -0.025285495
-0.0906754 -0.06131534 -0.017570425 -0.017934674 -0.13684857 0.0088187875 -0.04119168 -0.008919334
-0.11451947 0.060672786 -0.053211726 0.04472309 -0.012084639 -0.08690118 -0.08095174 -0.13161248
-0.013025708 -0.058633864 -0.057513736 -0.072385125 -0.02417648 -0.1096763 0.072175235 0.06524096
0.027594525 -0.012030599 0.00096769904 -0.053745963 -0.047100924 -0.017104525 0.0423063 -0.039844103
-0.042267606 -0.024483373 -0.023251055 0.028761322 0.00085135695 0.033837553 0.012843607 -0.025969159
-0.09081513 0.054965608 0.060484085 -0.0034323982 0.04531101 0.050134275 -0.014361983 0.058233812
0.056826346 -0.02535799 0.019261835 -0.063483395 -0.0044366606 -0.06669028 -0.10318996 -0.04132315
-0.12684128 -0.07211932 -0.080787875 -0.015298411 0.005729786 -0.07730954 -0.060561117 -0.039558403
-0.062126476 -0.096640304 -0.085748054 -0.09532938 -0.017638724 -0.06842338 -0.05344569 -0.028761595
-0.1124643 -0.036189955 -0.04342942 -0.065317966 -0.12000708 -0.098053634 0.0044111237 -0.07193847

conv2.bias f4 [64]
00000000: b05c 80bd 38dd 30bd 98de 123c 7703 16bd
00000010: 6f1c 5dbd 6666 fabc 514a 49bb a886 38bd
00000020: 0a6c 0bbd 8a0d a8bd 3a6f 92bc 51c0 50bd
00000030: d5d3 c2bd 2430 64bd 6f46 1fbc dcb4 edbd
00000040: becc 8cbc 735b f6bb a862 553b 5738 c93b
00000050: 5a9d 11bd 03d0 e9bd 1162 c7bd afc9 aebd
00000060: 4a93 433d 8a6b 20bb 3338 17bd ac2d debd
00000070: 4072 66bc c503 d5bd 5582 4ebd 9059 0ebc
00000080: acdf 21bd 795b 40bd d885 19bc e04b 1e3b
00000090: 7d26 72bd fa1d bbbc 53b0 00bd 93d8 a3bc
000000a0: 011f 16be 1574 41bd d64c 83bb 9b11 a5bc
000000b0: 68a3 b9bd 417c 253d e55c 5abe 05f4 51bd
000000c0: a5a0 3cbe ad60 4bbd acbf 12be 95e7 a5bd
000000d0: 5e4e 8cbd 33e9 a3bd 99d5 81bd fbe8 9bbc
000000e0: 3563 7cbd 0dc1 cdbc 8b40 02bd 536b 0fbd
000000f0: 30a0 53bd b7d7 79bd c024 e3bd b4b1 97bc
-0.06267679 -0.04317972 0.008964203 -0.036624398 -0.053982195 -0.030566406 -0.0030714462 -0.045050293
-0.03403858 -0.08205707 -0.017875303 -0.050964657 -0.0951306 -0.055709973 -0.0097213825 -0.11606762
-0.017187472 -0.007518226 0.0032560024 0.0061407494 -0.035550453 -0.11416628 -0.097355016 -0.08534562
0.047747888 -0.002447816 -0.03691883 -0.10848555 -0.014065325 -0.104011096 -0.050417263 -0.008688346
-0.03951995 -0.046962235 -0.00937029 0.0024154112 -0.059118737 -0.022841442 -0.031418156 -0.020000732
-0.14660265 -0.047229845 -0.0040069623 -0.020149997 -0.090643704 0.0404017 -0.21324499 -0.051258106
-0.18420656 -0.049652744 -0.1433093 -0.081008114 -0.06850885 -0.080034636 -0.06339569 -0.019031992
-0.06161805 -0.025116468 -0.031799834 -0.03501446 -0.05166644 -0.060996737 -0.11090994 -0.018517353

conv3.weight f4 [128, 64, 3, 3]
00000000: 5b5f 32bd ce13 72bd 89c9 7abb 9205 24bd
00000010: c04c d6bd dc50 7ebd 9db8 61bc d2b9 a9bd
00000020: 64a0 26bd db4b b5bc 55b3 f7bc 7c59 60bd
00000030: d9e5 0d3d 1905 c63d 1015 0fbd f08e 223d
00000040: ddf2 8f3d 4235 cc3d b98c cabd fc38 aabd
00000050: 4415 9abd 35a6 85bd 978a 84bd b9af e4bc
00000060: 42d8 9dbd a6a6 8cb9 3908 62bd 21c3 8fbb
00000070: 842d 73bd 6172 21bd 61ac 27bc e413 10bd
00000080: 1ded 48bd 2027 f6bc 7267 a3bc 616c 59bd
00000090: c427 a3bd 13ae 1ebd 2699 b7bc 74fb 38bd
000000a0: 333c 71bd e644 40bd 3d13 20bd bb94 c2bc
000000b0: 8f10 81bd 6ff1 11bd de42 b0bd 457a 8abd
000000c0: 0b65 45bd bd54 2bbd c637 a7bd 5502 4ebd
000000d0: aee1 c6bd d0bd 48bd 1365 28bd e190 c9bc
000000e0: a4ed a1bc c78e 39bd ff13 8abb 7138 cbbc
000000f0: 557d 12bd 9695 81bd c972 89bd 7312 11bd
00000100: 8f2b 52bd 3681 2abd 7b94 94bd eb52 30bd
00000110: a029 17bd b42b a7bd f32e 46bd cc38 f1bc
00000120: 3136 83bd ced0 5ebd 72c7 20bd 3cb5 a8bd
00000130: e0db 9bbd 4c3f a9bc e5d8 50bc b483 61bd
00000140: dd4c 8f3a df2e 42bd 0ea5 9abd e530 21bd
00000150: 30d8 67bd d43b d2bd e980 a0bc c8f5 30bc
00000160: 9f07 8cbd 08a8 16bc ddbc b6bc 4934 e33b
00000170: 66ef 12bc 1be5 debb 8d49 8ebd e295 5a3d
00000180: 8c30 73bd a514 82bd 649e 703d f806 81bd
00000190: 8631 10bc 9717 17bd 549d 42bd c1e3 89bd
000001a0: 5645 bbbd 9b20 42bd ffc8 45bd 07df a8bd
000001b0: 0d44 59bd 3bcb b7bd 58b9 3cbd 9b33 91bd
000001c0: 04d7 70bd db74 9bbd 3284 5dbd ef22 8ebd
000001d0: fe55 abbc 85f9 ccbc a78a 5abd 8dcb bdbc
000001e0: 1f72 4cbd 3679 08bd fcc0 083d 15aa 4fbb
000001f0: f0bf eebb c167 083c ab7d e73a 0029 ad3a
00000200: ee18 843c 0e99 9fbc 6b9b 46bb 2bbf a2ba
00000210: f8c3 8a3d 2a45 5a3d 380d 95bc 720f a8bc
00000220: d3cb 63bd 2e8c a5bd b9ec 01bd 5709 013d
00000230: 2395 bf3d e95b 943d fc71 953d d123 993c
00000240: 699a 1cbd be61 81bd 142a 933b a229 2d3c
00000250: 7049 80bd 1cda 313d 3e8f 74bd dfc9 053c
00000260: 8039 083d 944f 94bd 7945 03bc f32c 6abd
00000270: 0ea7 50bd 59f8 30bd 5131 f5bc 6cee 9abd
00000280: 2ff4 94bd 2725 b5bc 2b1c 02bd e816 39bd
00000290: 5df1 d1bd c73d a3bb 6eb8 00bd c6e0 23bd
000002a0: 6934 89bd 9098 8abd 828a 23bd cefd ebbc
000002b0: 06c4 86bd 3b33 bbbd 1e5b 95bd ea4a c7bd
000002c0: 0ecf 89bc 801f 5bbd e3e6 03bd 968a 24bd
000002d0: d6a0 da3c 334c 8b3d df41 9d3c a551 22bc
000002e0: bc98 6a3d bf67 493d ffda 983c a3fe c13d
000002f0: 64f8 c23c b261 0bbd 630e b7bd 425d db3b
00000300: 82f3 46bd ffac f83a 10a6 923c e543 1fbd
00000310: bea3 4cbd 64ea 0abd 10d5 89bd be04 16bd
00000320: d3f2 17bd c559 b3bd f6da 83bd 5b44 6dbd
00000330: 7252 c2bc 8f4a aabc 670e 0cbd 7ac3 63bd
00000340: 07e9 8dbc 971e 6abd ea74 0ebd e8e7 6fbd
00000350: fac8 59bd 2099 95bd 2d1d 27bd 1250 91bd
00000360: 7cca a7be 1f20 22be 9eee 88bf 450a 013e
00000370: 20c5 5cbe 3339 0e3e ddb4 acbb f3e6 7abe
00000380: 08eb 1cbe c458 83bd d816 0dbd 706f abbd
00000390: 8600 9ebd 39bc 36bd 9cba 9dbc 7018 283d
000003a0: 72af 39bd e7f5 cbbd caa8 483d ecf3 86be
000003b0: 7fa4 673e 5a6e 403e f3c5 4f3e f9cd 89be
000003c0: 9408 d8be ed9b f9bd 4bb5 e9bd 86f5 5ebc
000003d0: 3a9d 89bd 6ff5 1abd c8b3 1dbd 3397 11bd
000003e0: 3621 3e3d 4854 10bd 967e 123d 1531 323d
000003f0: c732 8e3d 7509 cbbd 1397 cfbc d612 333d
-0.04354797 -0.05910092 -0.0038267097 -0.040044375 -0.10463858 -0.062088832 -0.013776925 -0.082873955
-0.040680304 -0.022130897 -0.03023688 -0.05477284 0.034643028 0.09668941 -0.034932196 0.039687097
0.07028744 0.099710956 -0.09890122 -0.0831165 -0.07523587 -0.06525842 -0.064717464 -0.027915822
-0.077072635 -0.00026827044 -0.055183623 -0.004387275 -0.05936958 -0.03941572 -0.010233969 -0.03517522
-0.049054254 -0.030047953 -0.019946788 -0.053081874 -0.07966569 -0.03874023 -0.022411894 -0.04516168
-0.0588953 -0.046940707 -0.039080847 -0.02375256 -0.063019864 -0.03563064 -0.08606504 -0.06761602
-0.048192065 -0.04182886 -0.08164935 -0.050295193 -0.09711014 -0.049009144 -0.041112017 -0.024605216
-0.019766636 -0.04530218 -0.0042138095 -0.024807187 -0.035764057 -0.063273594 -0.06711347 -0.035417985
-0.051311072 -0.04162713 -0.07254883 -0.043047827 -0.03690493 -0.081626326 -0.048384618 -0.029446028
-0.064068206 -0.05439835 -0.039252706 -0.08237693 -0.07610297 -0.020660065 -0.012747024 -0.055057243
0.0010932941 -0.04740798 -0.07551013 -0.03935327 -0.056602657 -0.102653176 -0.01959272 -0.010800786
-0.06837391 -0.009195335 -0.022306854 0.006933723 -0.00896821 -0.006802214 -0.069476224 0.053365596
-0.05937247 -0.06351594 0.058744803 -0.06300157 -0.00880087 -0.03688773 -0.04751332 -0.06732894
-0.09144084 -0.047394376 -0.048287388 -0.08245664 -0.053043414 -0.0897431 -0.046075195 -0.07089921
-0.058798805 -0.07590648 -0.05408115 -0.06940257 -0.020915028 -0.025021324 -0.053354885 -0.02316835
-0.04991352 -0.03331872 0.03338717 -0.003168707 -0.0072860643 0.008325518 0.0017661353 0.0013211071
0.016125169 -0.019482162 -0.0030305039 -0.0012416592 0.06775659 0.053288616 -0.01819478 -0.020515177
-0.055614304 -0.08083378 -0.031719897 0.031503048 0.093546174 0.07244093 0.072971314 0.018693836
-0.038233195 -0.06317471 0.0044911 0.010569008 -0.06264007 0.043420896 -0.05970692 0.008165806
0.03325796 -0.07241741 -0.008012169 -0.057171773 -0.050940566 -0.043205593 -0.029930742 -0.075650066
-0.07273137 -0.022112442 -0.031765144 -0.04518786 -0.102511145 -0.0049817297 -0.031425886 -0.040009283
-0.066994496 -0.0676738 -0.039927013 -0.028807547 -0.06580357 -0.09140631 -0.0729277 -0.097310856
-0.016822364 -0.053496838 -0.032202613 -0.04017123 0.02668802 0.06801643 0.019196449 -0.009907161
0.057274565 0.049171206 0.018659113 0.09472396 0.023800083 -0.034028716 -0.08938291 0.006694467
-0.04857207 0.0018972455 0.01790145 -0.03888311 -0.049960844 -0.03391494 -0.067300916 -0.036625616
-0.03709681 -0.087573566 -0.06438248 -0.057926517 -0.023720954 -0.020787505 -0.034193423 -0.055606343
-0.01732303 -0.05715808 -0.034779467 -0.058570772 -0.05317018 -0.07304597 -0.04079931 -0.0709535
-0.3277167 -0.15832566 -1.069782 0.12601574 -0.21559572 0.13889007 -0.005270584 -0.24502163
-0.15324032 -0.06413415 -0.034445614 -0.083708644 -0.077149436 -0.044613097 -0.019254021 0.04103893
-0.045333333 -0.099590115 0.048989095 -0.26357973 0.22621344 0.18792096 0.20290355 -0.26914957
-0.42194045 -0.121879436 -0.11411532 -0.013608342 -0.06719442 -0.03783172 -0.03850153 -0.035544585
0.04641839 -0.035236627 0.035765253 0.04350384 0.06943279 -0.09913913 -0.025340592 0.043719135

conv3.bias f4 [128]
00000000: 6ebc b1bd e0ba 01bd 21cc 3fbd 3d65 21be
00000010: 8062 10bd 7aeb 23be 6773 a3bd fb04 70bd
00000020: 380f 87bc f4e0 a9bd 9c77 a23d f8d7 99bd
00000030: 2e43 ffbc f877 bcbd 1385 393d e006 5fbe
00000040: 9a29 abbd f811 2dbd d5e8 07be f2ed 40bd
00000050: f0bc aab9 06a0 0bbd 9f53 94bd d786 ffbd
00000060: 17cc 9f3d bcc5 cabd 3eb0 8fbd bfbc ac3d
00000070: 3524 2bbd 1f3b 99be a3b8 22bd ae67 83bd
00000080: fc27 96be 4210 70bd 0ea6 93bd 9f1c df3d
00000090: 8891 95bd c9a6 4fbd 04b4 08be 5226 35be
000000a0: c031 983d e0af 2abc 0a9f f53b 8ee3 57be
000000b0: 41ce 513e c81f d53b 6e5a 89be 7151 3bbd
000000c0: 41a3 2ebe 8fa1 c43c 8ea7 22be ff89 c0bd
000000d0: 2508 bd3d 2130 e6bd efcf 07be 1231 22be
000000e0: 68e6 f8bd 15e8 05be 3f32 bf3d 58ba e6bd
000000f0: 0998 4ebc f37c c7bd b9ac 00be a8fa 053e
00000100: fcd2 c8bd 14b4 1ebe b47c 243e 148c 2cbe
00000110: 4ae6 b3bd df25 14bd baf5 a2be b467 9dbd
00000120: e388 9c3d d058 90bd 4a1d 11be 0049 0bbe
00000130: 5f8b 84bd f89a dfbc 42d8 d7bc 2c3f a53c
00000140: 01e0 cfbd 665b b8be f464 5bbe d0af afbd
00000150: 7af2 bcbc 7939 50be 0113 18be 513c d3bd
00000160: bc7d 43be 5d61 ad3d 52dc 4c3d 759a ccbc
00000170: 4065 aabe c54c 9fbd 801f b4bd 70d8 8abb
00000180: b43a 0ebe 1a67 1c3d 332c 31be dd50 c7bd
00000190: 8509 08be eeae 50bd 725f 88bd c388 47be
000001a0: 331a c9bd 33c8 f8bd feff 56bd c7f9 11be
000001b0: 7f25 8d3c 1113 7bbd 7fad c93c 45e4 89bd
000001c0: 779e ce3d 1d58 02bd d0f8 94bd 4060 7dbd
000001d0: 8da0 fcbd fa06 91bd 63a2 d1bd c56d e6bd
000001e0: abf2 48be 1195 01be 9793 68bd 91b0 d4be
000001f0: b90d 35be 3f8e bbbd a996 9fbe f418 9bbe
-0.08678518 -0.03167236 -0.046825532 -0.15761276 -0.035250187 -0.16007796 -0.079809956 -0.0585985
-0.016486749 -0.082948595 0.0793297 -0.07511896 -0.031159963 -0.0920257 0.045292925 -0.21779966
-0.08357544 -0.042253464 -0.13272412 -0.047101922 -0.00032565696 -0.034088157 -0.07242512 -0.124768905
0.07802599 -0.09900996 -0.070160374 0.08434438 -0.041782577 -0.29927918 -0.039726865 -0.0641626
-0.2932738 -0.058609255 -0.07209407 0.10894131 -0.073031485 -0.050696168 -0.1334992 -0.176904
0.07431364 -0.010417908 0.0074957656 -0.21082899 0.20488836 0.0065040328 -0.26826805 -0.045731965
-0.17054464 0.024002818 -0.1588423 -0.09401321 0.09230069 -0.112396486 -0.13262914 -0.15839031
-0.121533215 -0.13076814 0.093357556 -0.11266011 -0.01260949 -0.09740629 -0.12565888 0.13083899
-0.09805867 -0.15498382 0.16063195 -0.1685031 -0.087841585 -0.03616893 -0.318281 -0.076857954
0.076432966 -0.0704819 -0.14171329 -0.13602066 -0.064718954 -0.027295575 -0.026348237 0.020171724
-0.10150147 -0.3600723 -0.2142523 -0.085784554 -0.02306484 -0.20334424 -0.14851 -0.10314239
-0.19090933 0.08465836 0.0500148 -0.024975995 -0.33280373 -0.077783145 -0.08795071 -0.004237227
-0.13889581 0.038184263 -0.17302017 -0.0973222 -0.13284881 -0.050948076 -0.0665883 -0.19485764
-0.0981945 -0.1214756 -0.052490227 -0.14255439 0.017229794 -0.06129748 0.024618862 -0.06732992
0.100888185 -0.031822313 -0.0727402 -0.06185937 -0.1233531 -0.07081409 -0.10236051 -0.112514056
-0.1962382 -0.1265452 -0.056781378 -0.4154096 -0.17681016 -0.09157991 -0.31169632 -0.30292475

fc1.weight f4 [10, 128]
00000000: fc68 85bd ea75 cfbe f7f2 233e 0343 6ebe
00000010: c334 b23d 74f3 d63d fedf 623d 6f5e 9f3c
00000020: 7d2b a9bd ad18 8b3d 442c a63e aef3 25be
00000030: dbb4 c4bd 436d 313d 7e88 853e e92f 183e
00000040: 9f13 213e 18c1 bbbc 6a29 3dbd 7dae cbbe
00000050: 2126 10bf 522d d03d 2bcd 7f3e 48e7 1e3e
00000060: 6994 89be 05c1 99bd c3ba 8f3c 3d26 b23d
00000070: 6855 0ebd 4c05 91be a244 54be 65ae 133e
00000080: d24f 27bd ca23 843d 778f c63c 27aa 313e
00000090: 2349 6cbd c22a 4d3d ac30 7ebe e3f3 acbd
000000a0: c41f 8c3e f48c 053e fd30 97bd 1c07 1fbf
000000b0: c24c 003e e6c7 b6be 50ff 72be ff21 d6bc
000000c0: 8252 da3d 7777 e23c 58b7 89be a9ef f63d
000000d0: 2e50 a5bd a492 803e 0cc2 79be a398 743e
000000e0: 78b4 abbe b3f5 cd3d 318b 95be a729 bdbd
000000f0: 085d 81be da94 66be bd82 b43d d21e 93bd
00000100: dde2 7ebd 4911 51bd 6a50 333d 8ef0 e13d
00000110: 6fde 46bc 2032 2dbe f761 79be 7c1a 2c3c
00000120: df2d 11be 0739 4a3e 6c6e 333e 2d68 803d
00000130: 6f9a 43bd 243f 1c3e 96db e43d 8d2b d5bd
00000140: d500 23bc 2875 2ebe fe1f c83d ccaf 993c
00000150: 10f9 b53e 97c4 ca3d 5c93 3c3e af27 debd
00000160: 04f7 003f 5b0b 493e 4e09 1abe ce6b b5bd
00000170: 0f1f 17be fc05 5f3d 5f27 1d3d 2db1 7fbe
00000180: 616f b2be 7d27 463e b53d 23be 6fce 893c
00000190: 39e3 ca3e 2c62 d43e b1df 1b3e 7504 763d
000001a0: e65d e1bd 5b18 813d d35f 86bd 850b cebe
000001b0: 8979 163e 11cc 24bd 6eca d43d de0e 9f3d
000001c0: cec6 b5bd 5f94 8dbe 76e0 db3d 05a3 f0bd
000001d0: 9d65 403e c342 e43c cc3d f6be 49ef e73d
000001e0: ab4d 1d3d f02d ffbe a42f 5c3e 94ad 8cbe
000001f0: 426e 2dbd 63f1 41bc 1c64 43be 06e8 98be
00000200: 4ef3 46bc 732c 9abe 1945 843e 3c6c 29bf
00000210: 7078 913e 4a23 c8bd ec17 55bd b07c 50be
00000220: 54a9 6b3e f6d6 213e 2755 f43d 12f7 573e
00000230: cccc 063e cadc 853c a009 87be d3bf 843d
00000240: e6f9 123e a036 1e3d 9a8f b83d 8302 a9bd
00000250: 10a3 933e 3340 4bbe 53b7 93bb 83b9 abbe
00000260: 18ac 43be c53b 01bd 2119 1abd 7e1d 5d3e
00000270: 293c 50bd e796 923c d0d3 433d 0e67 b6bb
00000280: 2ebe 1fbe ff02 4e3e 7f34 d9bd 32cf 213e
00000290: 4229 8ebb 3e97 153e 5d7e 8cbe edea ffbe
000002a0: a676 b0be 14d7 b1be a6d2 24bf a677 c6be
000002b0: a29c 3c3e 4894 a3be c15a 34be 6de2 043c
000002c0: 3953 1bbe a119 8a3c 5132 953d 1259 bf3e
000002d0: 760a 863e 0f0d 33bf e7e8 c53e 4917 b4be
000002e0: 35d2 e9bd 91e4 28bf a295 acbd 7fc5 2bbe
000002f0: 22ad c73e 3d9a 5c3d 273e 603d 0824 3c3e
00000300: b24c b9bc 8afe be3e f1a4 e8bd bf20 ccbe
00000310: 0012 853e b7d6 08bf 9e9b 2dbf 5cf7 0e3e
00000320: fe97 703e 0b31 c13d e8ac 28bf 2a12 71bd
00000330: f6e5 b6bc 9370 fbbd 551f c9bc ffd9 a23e
00000340: 91ef 6a3d dfd2 bc3d fc5a 2abf ea4f 78bd
00000350: a65c 3dbd e548 48be cb0b 14bf c323 af3d
00000360: 1739 c6be 9fb6 d9be 9486 883e a34c f73d
00000370: 9a6f 2cbf 5c81 b03e 9e6d b4bd e98c 2bbd
00000380: 1b9e aebe 8e64 ff3d bed0 cbbc 1f46 9cbd
00000390: ee35 e7be 76a6 d2be 0ab1 67bc d6b0 eebd
000003a0: b90e 26bd 385c 9a3d 9b74 a8bb 419b 883d
000003b0: 8b2d d33e be19 0c3c 6952 e9bc 9073 d1bc
000003c0: a859 c53d f099 d23e 5d1a 5dbc 6674 743d
000003d0: 93b3 f4be e387 213c 1c69 793d 1787 463d
000003e0: 74fa de3d 32f5 03bf 68c6 47bc 5718 873d
000003f0: 8fe1 6b3d ef45 d1bd 79bd efbd 9e21 06bd
-0.06514165 -0.4051965 0.16010652 -0.2326775 0.0870147 0.10495654 0.055389397 0.01945421
-0.08260248 0.06791816 0.32455647 -0.16206238 -0.09604808 0.04331709 0.26080698 0.14862026
0.15730141 -0.022919223 -0.046182074 -0.39781561 -0.5630818 0.10164894 0.24980609 0.15517914
-0.2687104 -0.07507519 0.01754511 0.086986996 -0.03474942 -0.28324354 -0.20729306 0.14421995
-0.040847607 0.06452139 0.024238331 0.17350064 -0.057686936 0.050089605 -0.24823254 -0.08444955
0.27367985 0.1304205 -0.07382391 -0.62120223 0.12529281 -0.35699385 -0.23730206 -0.026139257
0.10660268 0.027644856 -0.26897693 0.1205743 -0.08071934 0.25111878 -0.2439043 0.23886351
-0.33536124 0.10056629 -0.29207757 -0.0923646 -0.2526629 -0.2251772 0.08813999 -0.07183613
-0.062228072 -0.051041875 0.04377786 0.1103221 -0.012137993 -0.16913652 -0.24353777 0.010504361
-0.14177655 0.19748317 0.17522591 0.0626987 -0.0477547 0.15258461 0.11174695 -0.10408697
-0.009948929 -0.17036879 0.09771727 0.018760584 0.35541582 0.09900778 0.18415588 -0.10847413
0.50376916 0.19633238 -0.15042612 -0.08858453 -0.14757942 0.054449067 0.038367625 -0.24969931
-0.348506 0.19351001 -0.15941508 0.016822068 0.39626482 0.4148115 0.1522205 0.060062844
-0.11004238 0.063034736 -0.06561246 -0.40243164 0.146948 -0.040233675 0.10390173 0.077665076
-0.088758096 -0.2765226 0.10736172 -0.117498435 0.18788762 0.027863866 -0.48094022 0.11324937
0.038404148 -0.49839735 0.21502548 -0.2747618 -0.04234148 -0.011837336 -0.19081157 -0.2986452
-0.012142969 -0.30112037 0.25833967 -0.6618078 0.284122 -0.09772356 -0.052024767 -0.20360065
0.23013812 0.15804657 0.11930304 0.21090344 0.13164061 0.016340632 -0.2637453 0.064819
0.14353141 0.038626313 0.09011765 -0.08252432 0.28835344 -0.19848709 -0.004507938 -0.33539972
-0.19108617 -0.03155114 -0.03762162 0.21593282 -0.050838623 0.017894221 0.047809422 -0.0055664843
-0.15599892 0.2011833 -0.10605716 0.15801695 -0.0043384144 0.14608476 -0.27440158 -0.49983922
-0.34465522 -0.34734404 -0.64383924 -0.3876316 0.18419126 -0.31949067 -0.17612745 0.008110625
-0.15168466 0.016857924 0.07284988 0.37372643 0.26179856 -0.699418 0.38654253 -0.35174015
-0.11417047 -0.65973765 -0.08426978 -0.16774558 0.38999277 0.05385803 0.054746773 0.1837312
-0.022619579 0.37303573 -0.11359585 -0.39868733 0.25990295 -0.5345263 -0.6781558 0.13961548
0.2349548 0.09433182 -0.65888834 -0.058855213 -0.02232645 -0.12277331 -0.024551073 0.31806943
0.057357375 0.09219908 -0.6654508 -0.060623087 -0.046230935 -0.19559057 -0.57830495 0.08551743
-0.3871543 -0.4252214 0.26665175 0.12075164 -0.6735779 0.34473693 -0.0880997 -0.04188243
-0.34105 0.12470351 -0.02487981 -0.07630562 -0.45158333 -0.41142625 -0.0141413305 -0.116548225
-0.040541384 0.075371206 -0.0051408536 0.06670237 0.41245684 0.008551059 -0.028481679 -0.0255678
0.09636241 0.4113307 -0.013495055 0.05968132 -0.47793254 0.009859058 0.060891256 0.048468675
0.10887614 -0.51546013 -0.0121933 0.06596439 0.057588156 -0.10218417 -0.11706061 -0.032746904

fc1.bias f4 [10]
00000000: e04d a0be 495c 0b3f 2e74 cfbe cb97 623e
00000010: e0c3 0a3e 2f7e c83d 1088 c7be a542 8c3e
00000020: 8eb0 503e 8a54 aabe
-0.31309414 0.5443769 -0.40518326 0.22128217 0.13551283 0.097896926 -0.38970995 0.27394596
0.2037985 -0.33267623
