MNIST_corrupt/models/model.pt (torch, 378536 bytes, 8 tensors)

conv1.weight f4 [32, 1, 3, 3]
000000 7e b5 b8 bc 8a bd 4c 3e 5b ee 85 be c4 6a 81 3e
       -0.02254748 0.19994178 -0.26158413 0.25276768
000010 1f 02 39 3d 23 21 fa 3e 93 4a 5c bd ac b0 c6 3e
       0.04516804 0.48853406 -0.053782057 0.38806665
000020 be 76 fd 3e 56 bf 7f be a1 03 21 be 82 c6 9a be
       0.49504656 -0.24975333 -0.1572404 -0.30229574
000030 03 96 5f be e7 e6 44 be c5 24 60 3e 30 0e 24 3e
       -0.21834569 -0.19228707 0.21889026 0.16021037
000040 44 f7 91 bd 85 5e 1a be 1e b1 0a 3e a8 6e ce be
       -0.0712724 -0.15075119 0.13544127 -0.403188
000050 a1 b3 d2 be 8c 3d 0c 3e 96 e0 10 3e 65 90 2b bf
       -0.4115267 0.13695353 0.14148173 -0.67017204
000060 b8 7e 84 3e 12 b5 af 3d 08 f7 0e bf 31 f5 2c 3e
       0.2587793 0.08579458 -0.5584569 0.16890408
000070 5d ff 0b be 4b 85 84 3e 32 1d 70 3e 5c cd d1 bd
       -0.13671632 0.25882944 0.23448637 -0.10244247
000080 a2 4c fd 3e 4f f6 87 3d a0 4b d7 3e 90 ad 43 3e
       0.4947253 0.066387765 0.42049885 0.19109178
000090 5d 3b 4e 3d 00 11 41 3e 28 37 d9 3e 87 8f 02 3c
       0.050349582 0.18854141 0.42424893 0.00796879
0000a0 fd dd c7 3e bd 1d b1 3e 13 e9 1d bd 51 2d de 3e
       0.3903655 0.34593 -0.038552355 0.4339395
0000b0 1c a9 d6 3e 07 22 00 3d f9 91 c5 be 63 09 01 3e
       0.41925895 0.03128245 -0.3858793 0.12601237
0000c0 a4 dc 5c 3e 30 75 9b bd c0 32 33 bd 97 77 9d bb
       0.21568543 -0.07590711 -0.04374957 -0.004805516
0000d0 43 9a 02 3f c4 00 15 3f 01 75 64 be 69 e7 16 3e
       0.51016635 0.58204293 -0.22310258 0.14736713
0000e0 18 c0 94 3e 31 79 d6 bd 92 e9 2d 3c 3b 4d 38 3e
       0.29052806 -0.10472334 0.0106147695 0.17998211
0000f0 5d 0b 13 bf fa 06 ff be 4f d6 11 bf d6 53 c4 3e
       -0.57439214 -0.4981001 -0.56967634 0.38345212
000100 53 f9 18 3e b8 78 aa 3c ab 01 0d 3e e5 3b f3 bc
       0.1493886 0.020809516 0.13770168 -0.029691646
000110 d2 db 01 bf a4 5a c1 3e 09 60 00 3d bb 85 19 bf
       -0.50726044 0.37764466 0.031341586 -0.5996968
000120 c4 a0 78 3e dc 12 55 be 61 48 b2 3e db fe b4 3e
       0.24280077 -0.20807976 0.34820846 0.3535069
000130 32 07 0c bd d1 bb 81 3d da 37 c3 3e 12 fc bc 3e
       -0.03418655 0.06334651 0.3812855 0.36911064
000140 82 30 a6 3d 8f 15 b3 be 9e d0 25 be f6 a6 cb 3e
       0.08114721 -0.34977385 -0.16192862 0.3977582
000150 21 30 8b 3e d8 de bf 3e bf a9 7c be 12 39 9e 3e
       0.27185157 0.37474704 -0.24674128 0.30902916
000160 27 bc 7a be 1d 15 03 bd bc ea 92 bd 53 cf c3 3e
       -0.24485837 -0.032002557 -0.07173678 0.38244113
000170 15 3b c0 bd 07 14 0d bd bf dc bf bd 2f 88 6b 3e
       -0.09386269 -0.034442928 -0.09368276 0.23001169
000180 ee 8a 31 be e1 72 28 3e c1 f6 94 3e 73 40 40 be
       -0.17338154 0.16450073 0.29094508 -0.18774585
000190 85 dc 10 3e 79 ab aa 3e 65 86 81 be c7 2e a3 bd
       0.14146622 0.33333948 -0.25297847 -0.079679064
0001a0 fb f9 c3 3e 62 f1 e6 be b4 5f d1 be e3 11 b6 3b
       0.38276657 -0.45106035 -0.40893328 0.0055563315
0001b0 c6 79 a0 3e c9 12 16 3e 22 4d 71 be 57 ef 9c 3e
       0.31342906 0.14655603 -0.2356458 0.30651352
0001c0 c6 d3 75 3e 79 c6 5b 3e 13 8d bb 3e 6f 6f e5 3e
       0.24006566 0.2146243 0.3663107 0.4481158
0001d0 58 a5 b9 3e 10 1d ab be 0c 86 6c 3e bb 11 fb 3d
       0.3625896 -0.3342061 0.2309801 0.12259241
0001e0 c4 d2 cd 3d a4 a5 ac 3e a2 d7 60 3d 4c fd 4f 3e
       0.10049966 0.33720124 0.054893143 0.20311469
0001f0 05 79 9f bc c1 d3 d1 be 2f fe 95 3d aa a3 b5 3d
       -0.019466886 -0.40981868 0.07323872 0.08869107
000200 d4 8f 92 3e d4 8a 22 be 4e b7 4b bd a8 f1 c3 3e
       0.28625357 -0.15873271 -0.04973536 0.38270307
000210 f8 80 e6 3d e4 03 3d 3e 3f a4 50 3d 06 e4 6c 3e
       0.112550676 0.18458515 0.050937887 0.23133859
000220 5d 79 40 be 6d 24 05 bf 9b e7 d1 3e f8 35 8e bd
       -0.18796296 -0.52008706 0.40997013 -0.069438875
000230 38 9b f6 be 00 74 87 3e 79 0f cd 3e c6 6e f9 3d
       -0.48165298 0.26455688 0.40050867 0.121793315
000240 33 e4 4c be d4 18 0c 3e 1a 32 cb 3e c6 41 7e be
       -0.20008926 0.13681346 0.39686662 -0.24829778
000250 c2 28 24 be a5 57 a5 be df 05 cb be 9d 73 0c bf
       -0.16031173 -0.3229343 -0.39652917 -0.5486391
000260 3d 83 83 bd 03 30 f5 bd 28 29 1e 3d f9 14 a0 bd
       -0.06421516 -0.11972048 0.03861347 -0.078165
000270 87 04 01 be e8 bd 83 be 32 cb ef be d2 1d 0d 3f
       -0.12599383 -0.25730824 -0.46834713 0.5512363
000280 bd 9a 48 3e f4 e7 5c 3e 86 4f 98 3d aa 00 cc 3c
       0.19590278 0.21572858 0.07437043 0.02490266
000290 c4 28 2f 3e f5 f6 9e be b6 27 d6 be 4b 2b 5a be
       0.17105395 -0.31047788 -0.41827172 -0.21305577
0002a0 77 78 4f bc c4 96 01 bd 7f c8 b2 be fe 24 9f 3d
       -0.012662998 -0.031637922 -0.3491859 0.077707276
0002b0 52 a9 3a 3e 34 95 50 be 9a f6 2f be 16 94 bb bc
       0.18228653 -0.20369416 -0.17183915 -0.022897761
0002c0 3a 2e 50 3e ba af 6e 3e 80 64 be 3e 22 c7 7a be
       0.20330134 0.23309222 0.3718605 -0.24490026
0002d0 d9 49 b2 3e 42 cb 12 bd d2 d6 1b bf 4e 0e bf bd
       0.34821966 -0.035838373 -0.60874665 -0.093289
0002e0 8a d3 3b bf f0 27 bd be 36 3b 1a bf a4 2c 73 be
       -0.7336966 -0.36944532 -0.602466 -0.23747498
0002f0 d0 86 42 3e af c8 45 be d7 93 16 3e 15 e6 de 3e
       0.1899674 -0.19314836 0.14704834 0.43534914
000300 60 f8 ce be fa e0 19 3e 40 e2 48 3e 6a 1b 77 be
       -0.4042387 0.15027228 0.19617558 -0.24131551
000310 be c6 01 bd 50 3d 71 3e ea 50 aa 3e dc 28 92 bd
       -0.031683676 0.23558545 0.33264858 -0.071366996
000320 58 11 cd 3e 25 72 26 be 8a 5a c1 be cd 5b 96 be
       0.40052295 -0.1625448 -0.37764388 -0.29366913
000330 cd 37 03 3f c9 d9 ab bd 02 10 b4 be 22 27 94 3e
       0.5125702 -0.083911486 -0.35168463 0.28936106
000340 01 a2 99 3e 00 d7 6e be a8 3f 68 3e 03 25 f5 bc
       0.30006412 -0.23324203 0.22680533 -0.029924875
000350 b1 ec c4 be 7f 0c 7e bd 4c 49 f2 be d4 25 b6 be
       -0.3846183 -0.062023636 -0.47321546 -0.35575736
000360 c6 c7 ae 3e 39 2f dd 3e e4 2c 49 3d 97 68 6f 3e
       0.3413679 0.4320009 0.049115077 0.23379742
000370 cc 6f 40 be 8e aa 92 be 7d 2d 8a be 38 19 14 be
       -0.18792647 -0.28645748 -0.2698783 -0.14462745
000380 e2 d7 ea be 2e 13 59 be ce 50 46 be d5 35 14 bd
       -0.4586783 -0.21198723 -0.19366762 -0.03618415
000390 59 74 38 3e e6 36 fd bd f0 7f 6f be a3 74 98 3c
       0.18013133 -0.12363987 -0.23388648 0.018610304
0003a0 be d3 96 be d6 b1 9f 3d 1e 3e 42 3d 82 9d e7 3d
       -0.2945842 0.077975914 0.04742252 0.11309339
0003b0 9c ad 82 be a2 44 8a 3e 3c 15 52 3d 29 ac 7a 3d
       -0.25523078 0.27005488 0.051289782 0.06119934
0003c0 3b 1c cc 3e 90 90 4e be 3b f5 ed 3c 78 84 d7 3e
       0.39865288 -0.20172334 0.029047599 0.42093253
0003d0 f1 f4 87 bb d2 4b b3 3e d0 12 ea bd 99 8c 02 3e
       -0.0041490723 0.35018784 -0.114293694 0.12748946
0003e0 ad c0 a9 3d b1 cf 83 be f4 6a ac bd b1 10 b1 be
       0.08288703 -0.25744393 -0.08418837 -0.34583047
0003f0 e5 5f 1b 3d ee 8e 9d 3d 6a 8a d0 be b7 ad 9e 3e
       0.03793325 0.07693277 -0.40730602 0.3099191

conv1.bias f4 [32]
000000 6c 58 0e be 3c 6e 9c be 59 e4 c5 3e 23 39 10 be
       -0.13900918 -0.30552852 0.38650778 -0.14084296
000010 53 99 f4 bb 03 1e 47 bd b3 ac a8 3e 97 39 0f 3e
       -0.0074645667 -0.048612606 0.3294426 0.13986813
000020 a0 87 39 bc b3 7a c4 bd fc 87 b2 bb 2f 62 0e 3d
       -0.011323839 -0.095937155 -0.0054483395 0.034761604
000030 a0 4e 1f be be e5 16 bd 20 b5 82 bb 0c 78 4a 3d
       -0.15557337 -0.036840193 -0.003988877 0.049430892
000040 5e 7d be 3e 13 a5 8d 3b b3 c2 84 3e 71 4b 99 3d
       0.37205023 0.004322657 0.25929794 0.074850924
000050 6f 46 e7 3e 2d 30 86 bb 88 4e 8e 3d 91 0e e2 3d
       0.45170924 -0.0040950985 0.069485724 0.110379346
000060 0b f6 78 3d 1e 87 9e be 83 78 cf bc 27 a2 a0 bd
       0.06078152 -0.3096246 -0.02532602 -0.07843428
000070 2f 52 77 be df 98 e7 3c e0 32 45 bd 14 ab fa bd
       -0.24152444 0.028271137 -0.04814422 -0.12239662

conv2.weight f4 [64, 32, 3, 3]
000000 b8 66 0d 3d 18 85 3e bd e2 c8 67 be c4 3c 6f 3c
       0.03452179 -0.046513647 -0.22635224 0.01460189
000010 87 e7 4e bd 4c 7d 18 3c 4d fe 86 3c 62 61 04 3e
       -0.05051377 0.009307217 0.016478682 0.12927774
000020 c3 eb d9 3d de 0a a5 bb 83 94 07 bd 8c d0 38 3d
       0.10640671 -0.005036696 -0.033100616 0.04512076
000030 12 1c fb bc f4 55 9c bc b5 80 3b 3d 97 1f 81 bd
       -0.030653033 -0.019083954 0.04577704 -0.063048534
000040 cf 24 ff bc 6d a2 e7 3b 26 01 81 3c 89 07 b7 bc
       -0.031145481 0.007068923 0.015747618 -0.02234246
000050 e2 8e 98 3d 2b 1a 8a bd 70 72 71 3d 4e 67 ea 3c
       0.07449128 -0.067432724 0.058947027 0.028613713
000060 03 5d 5c bd b5 85 c5 bd ee 26 ae bd 03 7b 17 bd
       -0.05379964 -0.09644643 -0.08503519 -0.036982547
000070 ef ec 03 be 55 91 2a be 77 3d b7 bc 34 eb c4 bd
       -0.12883352 -0.16657002 -0.022368176 -0.09615174
000080 de d6 63 bb b7 8b e9 3c 6e 8b ff 3d 1c 1d 33 3e
       -0.0034765522 0.028509004 0.12477766 0.17491573
000090 72 b2 56 3c ea 4e 70 bd 83 67 2c be 24 db 41 bd
       0.013104068 -0.05866901 -0.16836362 -0.04732813
0000a0 a3 8a a5 bd 1d 3d 1b 3d ed 1e b2 3d 40 58 63 3d
       -0.080830835 0.03790008 0.08697305 0.055504084
0000b0 0a f4 1a 3e db 16 99 bc 16 5e 3f bd 42 3d 19 be
       0.15132156 -0.018687656 -0.046720587 -0.14964774
0000c0 9a 22 60 3a 85 cc 49 bd 6b 1d 9c 3a 09 0c 4a 3d
       0.0008550078 -0.04926731 0.0011910623 0.049327884
0000d0 86 79 d2 3d 45 b8 57 3e b4 63 3b bd b3 55 a7 bc
       0.10277085 0.21066387 -0.04574938 -0.020426607
0000e0 60 98 e0 bc 7c 45 55 bd 6b 2a 6f 3c b6 f2 a8 bd
       -0.027416408 -0.05206822 0.014597516 -0.082494184
0000f0 55 91 fe bd d3 7f 56 be ac d3 28 be cb af d6 bd
       -0.12430064 -0.20947199 -0.16486996 -0.104827486
000100 13 20 57 3d 9e 37 0c bd 47 95 fb bd 38 b5 04 bd
       0.052520823 -0.03423273 -0.12284332 -0.032399386
000110 b5 3d b4 bd f1 98 9f 3c 51 98 81 bd 70 0a 47 bd
       -0.08800832 0.019482108 -0.0632788 -0.04859394
000120 e7 88 95 bd f2 49 4d bd d5 06 41 be d4 4f 98 bd
       -0.07301503 -0.050119348 -0.18850262 -0.07437101
000130 2b 2e 7b bd 2c 2b 29 3d f2 20 d0 3d c2 3e 02 3e
       -0.061323326 0.041300938 0.10162534 0.12719253
000140 51 41 17 3e 94 a6 68 bd 21 ff 9b 3c 1e cd 37 be
       0.1477101 -0.056799486 0.019042553 -0.1794934
000150 8a c0 80 bc f5 b0 2b bd 30 e5 9c bd dd ac 8a 3d
       -0.01571681 -0.041916806 -0.076609015 0.06771252
000160 78 0b 47 3d b8 fd 29 3d 89 64 49 3d db 3e 9c bd
       0.04859492 0.04150173 0.049168143 -0.07629176
000170 ec e8 ba bd 0c ca 26 bd dd 84 ca ba 80 d2 08 3d
       -0.091264576 -0.04072003 -0.0015450973 0.033403873
000180 bd b1 43 3d 9a 79 22 3d 07 f7 04 3e d7 29 33 bd
       0.047776926 0.03966675 0.12984858 -0.043741073
000190 13 30 ff bd e4 2d 7e be 5c 87 3b be dc 35 62 be
       -0.12460341 -0.24822193 -0.18313354 -0.22090858
0001a0 58 06 40 be 45 7a a7 be 5c f2 91 be f9 c5 97 be
       -0.1875242 -0.32710472 -0.28505218 -0.2964323
0001b0 97 9b f6 bc ad a6 8d 3c f7 14 2d be ae fb 48 bd
       -0.030103488 0.017291391 -0.16902529 -0.049068145
0001c0 54 33 26 bd 1c c4 1a bb 36 9d ad 3d e0 19 5d 3d
       -0.040576294 -0.0023615425 0.08477251 0.053979754
0001d0 e2 a6 45 3d e0 94 2c bd cc cc 94 3d 8f ee 73 be
       0.048254855 -0.042134166 0.072656244 -0.23821472
0001e0 aa 6f 65 bd 25 02 e2 bd 74 10 75 bd ac ac 79 3d
       -0.056014694 -0.11035565 -0.059830144 0.06095569
0001f0 d8 3e a3 3d d0 3a 6f 3d 36 be 8a 3c 0f 5e bb bd
       0.07970971 0.058405697 0.016936403 -0.091488
000200 16 84 46 be 7b 23 af bc 00 9e 31 bc bc 6f 00 3d
       -0.19386324 -0.021379223 -0.010840893 0.03135656
000210 47 b4 d1 bc 22 fc bd 3d 0f b0 56 3d 57 22 4f bc
       -0.025598658 0.09276606 0.052413996 -0.012642465
000220 06 67 05 3c a4 26 49 bd fd 7c 5f bd ef 77 7b 3d
       0.0081422385 -0.049109116 -0.054562557 0.061393674
000230 59 2e 70 3d 82 51 b0 3d c9 42 b4 3d e6 ce 58 bc
       0.05863795 0.086092964 0.08801801 -0.013232922
000240 f2 9a 25 3d 9b 08 e0 3c 8b 7a 15 bd 65 33 e9 bc
       0.04043097 0.027347853 -0.03649382 -0.02846689
000250 2d 79 3f 3d e9 7b b2 3c 74 9f a1 bd 40 e6 19 bd
       0.04674642 0.0217876 -0.078917414 -0.0375731
000260 fb c5 5b be 30 73 bb 3c d8 6f a8 bc 3b 1f 9a ba
       -0.21462242 0.022882074 -0.020561144 -0.0011758575
000270 1c 7a 89 3d 2c 23 f7 39 be 97 2a 3d f9 9b 18 3e
       0.06712744 0.00047137716 0.04164862 0.14903249
000280 f6 c9 81 3d e6 8c 69 3e b1 a5 0f 3d 2b 49 8c bb
       0.06337349 0.22807655 0.035070125 -0.0042811832
000290 64 a2 aa 3d 6a 06 8a 3d 83 fa 12 bc a7 e1 ea ba
       0.08331755 0.06739505 -0.008970859 -0.0017920033
0002a0 c3 cc 0e 3d 32 84 1f bd 0c 0d 24 be 14 82 ae bd
       0.034863245 -0.03894443 -0.16020602 -0.08520904
0002b0 35 68 66 bd 28 66 6d bd 80 d5 3d 3c 81 2b 84 bc
       -0.056251723 -0.057958752 0.011586547 -0.016134026
0002c0 18 e7 12 bd 2a 4d 22 3d 95 81 11 3d 72 5b 98 3d
       -0.03586492 0.03962437 0.03552397 0.07439317
0002d0 d0 df 59 3d ba 89 af bc ad 05 bf 3d 03 15 09 3d
       0.05319196 -0.021427978 0.093272544 0.033467304
0002e0 5e 4f 41 3d 1b 05 12 3e 73 92 58 3d 47 f0 b1 3b
       0.04719483 0.1425976 0.05287404 0.0054302546
0002f0 fe 29 f0 bd b7 7d b1 bd 97 41 2c be fd 36 77 be
       -0.117267594 -0.08666556 -0.16821896 -0.2414207
000300 78 e9 28 bd 89 eb b5 bd fb 65 ac bd e0 92 91 bd
       -0.04123828 -0.088828154 -0.08417889 -0.07108092
000310 58 7b 85 3c 92 78 56 3c a5 9d 61 bd 06 04 90 bd
       0.016294166 0.01309027 -0.055081982 -0.070320174
000320 c2 c6 84 bd 14 fe 66 bd 32 73 d1 bc 50 34 a1 bd
       -0.064832225 -0.05639465 -0.025567625 -0.07871306
000330 e1 a7 33 bd fa 95 fb bd 4f f8 27 bd 91 02 95 bc
       -0.043861274 -0.12284465 -0.04100829 -0.0181897
000340 7a 20 30 3d cc 0d ff 3d 5f 3d 94 bd b8 4d a7 3d
       0.042999722 0.124538034 -0.07238268 0.081691206
000350 9b ad 01 bd 26 39 2f be 82 bd 92 bd 41 49 c4 bd
       -0.031659704 -0.17111644 -0.07165052 -0.095842846
000360 97 a0 49 3d 62 32 9e bc 12 1d 3a bd a1 52 d3 bc
       0.049225416 -0.019311134 -0.04543788 -0.025796236
000370 4e 35 2b 3d 04 83 05 be 6c 89 b0 bd 83 7f 2d bd
       0.041798882 -0.1303826 -0.08619961 -0.042357933
000380 0b 17 e3 bd 3e 6c 90 bc d6 0d 4b 3d eb c1 db bc
       -0.110883795 -0.017629739 0.04957374 -0.026825866
000390 0d bb 5a 3d b7 aa 01 3d fa b6 07 bd 04 0e 3e 3b
       0.05340104 0.031656947 -0.033133484 0.0029000053
0003a0 d3 01 bd 3c 32 c0 88 3c ef 72 5c bd f4 f3 43 bd
       0.023072159 0.016693208 -0.053820547 -0.047840074
0003b0 bf d9 cc bd 7a 8f 89 bd e6 3e de 3c 1d 0d 69 bc
       -0.10002469 -0.06716819 0.027129602 -0.014224318
0003c0 2c a6 4f 3d ae ca ea 3d ee f2 49 3d c6 72 0a 3e
       0.050695583 0.11464439 0.04930394 0.13520345
0003d0 b4 a3 30 bd 7b 2f 2d be 3e 80 9e 3c ff 49 0c bd
       -0.04312487 -0.16912644 0.01934826 -0.034250256
0003e0 c1 fa 05 be 7f 1c c6 bd ec c0 ba bd e3 22 4a 3d
       -0.13083936 -0.09673404 -0.09118828 0.049349677
0003f0 89 6a aa 3d a5 7b 89 3c 06 3a 7c bd 0f 69 9d bc
       0.08321101 0.016782591 -0.061578773 -0.019215135

conv2.bias f4 [64]
000000 57 f0 89 bc b6 eb 6a bd 48 d8 f5 3b 49 5b 81 bd
       -0.016838236 -0.057353698 0.0075025894 -0.063162394
000010 89 38 36 3d 0d 6a 85 bd 1b ac a5 bc 3f 24 d9 bd
       0.04448751 -0.06514368 -0.020223668 -0.106026165
000020 33 cf 68 bd f5 2e 57 bd 0b b2 f8 bd f9 c7 91 bd
       -0.056838226 -0.052535016 -0.12143334 -0.0711822
000030 b3 8f 89 bd 05 17 58 3c f1 06 e1 3b 54 b1 19 bd
       -0.067168616 0.013189082 0.0068672826 -0.03752263
000040 ce 04 e8 3b 48 0a 77 3d 42 7b ca bd 0f 39 65 3c
       0.007080651 0.06031254 -0.09886791 0.013990655
000050 12 ad 1c bd ed 46 98 3b 44 6c 13 bc bc 24 16 bd
       -0.03825099 0.004647127 -0.0089979805 -0.036656126
000060 dc d8 a0 bb d3 23 96 3b b4 fc 5b 3c ac 89 50 3b
       -0.004908664 0.0045819073 0.013426948 0.003182034
000070 c0 e3 0b 3d 06 09 46 bd 2d 67 bf bc e8 5b 71 bd
       0.034152746 -0.04834845 -0.023364628 -0.05892554
000080 e9 5a d7 3d 44 4f e5 3d b8 ab b8 bc 22 8c c6 bd
       0.105153866 0.11196759 -0.02254282 -0.09694697
000090 94 77 3e bd 54 e4 22 bd a0 55 4c 3d 33 c4 02 3d
       -0.046500757 -0.039768532 0.049886346 0.03192539
0000a0 e7 1e 95 bd 24 bc fd 3c 8e df 55 3b ca 97 a6 bb
       -0.07281285 0.030973502 0.003263447 -0.0050840126
0000b0 ae 8d 59 bc 39 f7 e0 bd bc b5 ed bc e8 30 08 bc
       -0.013278408 -0.10984654 -0.029017322 -0.008312441
0000c0 9c a7 3f bd 09 de 71 bc 3e ad a2 bc bf c0 ff bc
       -0.046790704 -0.01476241 -0.019857999 -0.031219838
0000d0 eb e2 ce bd 72 8d 71 3b 8e 6f 91 bd cb d0 3c bc
       -0.10101875 0.003685799 -0.071013555 -0.0115243895
0000e0 75 e2 e8 bd d7 0d d1 3c 8f e3 ad 3d 14 a5 8e 3c
       -0.11371318 0.025519295 0.08490669 0.0174127
0000f0 6e 1d b3 3c 24 ba 71 bd 51 77 4a 3d 6e 22 e8 bc
       0.02186462 -0.05901541 0.049430195 -0.02833673

conv3.weight f4 [128, 64, 3, 3]
000000 6d b3 8c 3c 87 f3 74 3d b2 61 79 3c a8 ff a1 bc
       0.0171754 0.05980256 0.015221046 -0.019775227
000010 56 92 44 bd 81 1d 5c 3d 0c 42 2f 3c 55 d7 97 3d
       -0.04799112 0.053739075 0.010696899 0.07414118
000020 39 cf 22 3e 2e f7 1b bd 4f 80 5e bd 1b a5 b5 bb
       0.15899362 -0.038077526 -0.054321583 -0.0055433637
000030 fb 57 4b 3c 39 a5 78 bc 6c a1 43 3c 1c 8a 29 bd
       0.012411113 -0.015176111 0.011940341 -0.041391477
000040 16 d9 1a bd e3 2a 63 bc 8b e3 a3 3c 02 4b af 3c
       -0.037804686 -0.013865205 0.020005962 0.021398071
000050 20 aa 33 bc 61 26 88 bd 0a 09 14 be f0 b8 b6 3d
       -0.010965854 -0.06647945 -0.14456573 0.08921993
000060 49 65 fe bd 13 6e 12 3d d8 0e b0 3d 7b d5 05 bc
       -0.12421662 0.035749506 0.08596581 -0.0081685735
000070 0f 9e fc bc db 76 d9 3c 94 05 d8 ba 78 19 1b 3d
       -0.030837087 0.026545933 -0.0016481155 0.037866086
000080 0e 83 2f 3c 89 d6 ae 3c b2 af b4 3c 56 5c ee 3b
       0.010712398 0.021342533 0.022056434 0.007274191
000090 b7 f1 8b 3b 24 d9 e1 3c 70 c4 89 3c ca c3 23 bd
       0.004270758 0.027569361 0.016817302 -0.03998164
0000a0 51 ae e4 39 55 f7 25 3c 06 a9 e6 3b 16 d6 fe 3c
       0.00043617425 0.010129769 0.007039192 0.031107944
0000b0 31 6c 96 3c 60 9a cf 3c 3e 59 b4 39 59 cf b2 bd
       0.018362137 0.025342166 0.00034398766 -0.08730955
0000c0 0e 24 04 3d c7 ae 17 3c 5f ac e0 bc 49 2e dc bc
       0.032260947 0.009257979 -0.027425943 -0.02687754
0000d0 63 8d d0 bd 5b df 4e bd 24 c2 5c bd b6 53 80 bd
       -0.101832174 -0.050505977 -0.053896084 -0.062659666
0000e0 3d 2f 84 3c b8 99 c5 3c b9 06 d7 bd 32 d8 66 3d
       0.016135806 0.02412115 -0.10499329 0.056358524
0000f0 cc c7 11 bd cf 1c 34 bd 57 da d9 3d cf dd 80 bc
       -0.03559093 -0.043972787 0.10637348 -0.015730767
000100 8c 6f 44 bd 76 53 91 bd 50 30 79 bd 8c 4a b7 bd
       -0.047957942 -0.07095997 -0.06083709 -0.089497656
000110 33 e3 7b 3d 8d f3 17 bd 05 ff a1 3d 0c ef fe 3d
       0.06149597 -0.037097502 0.07909969 0.12447938
000120 ae ef 06 bd 7d b8 6b bc 21 04 44 bd e9 86 87 3c
       -0.03294342 -0.014387247 -0.0478555 0.016543822
000130 99 08 14 3b af 3a c9 3a d9 d7 87 bd b9 28 ed bd
       0.0022588132 0.0015352572 -0.066329665 -0.11580033
000140 5c 33 5a bd 74 9f c8 bd 55 14 d3 bd 39 02 44 be
       -0.053271636 -0.09796038 -0.103066124 -0.19141473
000150 0a c5 f4 bc ef d9 a8 bc b3 f9 57 bd 08 12 f8 3a
       -0.029879112 -0.020611731 -0.052728366 0.0018926272
000160 63 db 4f bd c4 c3 ac bc de 4b 1e 3d 45 6c 5c 3d
       -0.050746333 -0.021089442 0.03864657 0.05381419
000170 b4 79 95 bd 5a af 0d ba be c3 48 3c 4c 5a a4 bc
       -0.07298604 -0.00054048526 0.0122537 -0.020062588
000180 67 38 83 3c 9a b8 91 3c fc aa f4 bd d8 55 2b ba
       0.016018106 0.01778822 -0.11946675 -0.0006535924
000190 81 a4 ce bd 8b 11 ae bd d8 74 ed bc ec b5 be bb
       -0.100899704 -0.0849944 -0.02898638 -0.0058200266
0001a0 91 09 af bd a0 c6 39 bd 46 8e c2 bc 27 1e bc bc
       -0.085467465 -0.04535544 -0.023749482 -0.022963597
0001b0 42 01 f5 bc 22 8b 96 bd 14 ae 58 bd cb 8c 1c bd
       -0.029907826 -0.07350756 -0.05290039 -0.03822021
0001c0 2b 68 a1 3c b3 15 d9 bd 83 0b 03 bd 8c ba e8 bd
       0.019702991 -0.10599842 -0.0319934 -0.11363706
0001d0 87 cc 9a 3d 24 f8 db bd 23 30 f3 bd 5d a3 18 be
       0.07558542 -0.107406884 -0.11874416 -0.14906068
0001e0 65 cb ad 3c 97 33 f8 bc 82 b9 83 bc de ed 57 bd
       0.02121515 -0.030298037 -0.016079668 -0.052717082
0001f0 c0 c7 dc 3c 72 06 26 bd 21 b8 36 bc 97 cb f2 3c
       0.026950717 -0.04053349 -0.011152298 0.029638095
000200 b6 8a 9c 3c 07 5c 5d 3b 58 30 07 3d 7a 6d 0e 3d
       0.019109111 0.0033776776 0.03300509 0.034772374
000210 3e 6b 41 bd a7 d2 14 3d 1e 0e 4f 3d d6 48 2b 3b
       -0.047221415 0.036333706 0.050550573 0.0026135943
000220 cb 1a f3 3b 6e 38 ba 3c 39 63 ab bc 55 c3 4f bb
       0.0074189655 0.022731986 -0.020921336 -0.003170212
000230 93 09 09 bd a5 ba 2c bd 36 3f 40 3a b3 da f3 bc
       -0.033456396 -0.042170186 0.0007333638 -0.02976737
000240 0f 2b 2e 3d 4a cf a3 3c cf f3 4f 3d c8 72 44 bb
       0.042521533 0.019996304 0.050769623 -0.0029975642
000250 0d d2 a6 3c 9a ee 1f 3d d2 18 55 bb 2a 33 fc bc
       0.020363832 0.039045908 -0.0032516015 -0.030786116
000260 2e 26 bd 3c d4 3f 38 b9 de 50 98 3c e0 50 99 3d
       0.023089495 -0.00017571385 0.018593248 0.07486129
000270 43 af fa 3c d2 2b 56 3c be 2c c2 3d 70 1e 43 3d
       0.03060115 0.013071971 0.0948119 0.04763645
000280 5f 56 04 3e d3 eb 01 be 37 78 da bd 54 72 ad bd
       0.12923573 -0.12687616 -0.106674604 -0.08469072
000290 6d bb d0 bd 9f 00 00 bc bf 09 a5 3b 7c a9 cb bc
       -0.10191999 -0.007812648 0.005036562 -0.02486109
0002a0 b5 ff 2e bc c0 c8 e8 3c cc 10 f8 bd de 8c a0 3b
       -0.0106810825 0.028416038 -0.12112579 0.004899605
0002b0 88 f5 51 bd c3 45 74 3c cc 83 4b 3c 7e 5f e7 bc
       -0.051259547 0.014909211 0.01242156 -0.028243776
0002c0 bb 74 26 3d a5 d2 51 bd 47 50 3d 3c ac 7b 1b 3d
       0.040638667 -0.051226277 0.011554784 0.03795974
0002d0 b9 0a 15 3d 66 51 ea 3c 23 e1 df 3c 2d 4d 8d ba
       0.03638718 0.028603267 0.027329033 -0.0010780446
0002e0 37 5d 5e bc dd c7 0b bd 27 69 0e 3d 81 07 26 bd
       -0.013572029 -0.03412615 0.03476825 -0.0405345
0002f0 29 56 17 bd 54 48 0c bd b5 7c 13 bd 64 95 fc bc
       -0.036947403 -0.034248665 -0.0360076 -0.030832954
000300 8d 7a 35 bd 0e 3c e1 ba e5 b6 18 bd 03 ef 11 bc
       -0.044306327 -0.0017184035 -0.037283797 -0.0089070825
000310 74 de c3 bd d4 35 bd 3d c3 1b b5 3c 87 5b 73 bd
       -0.09563914 0.092387825 0.022107964 -0.05941346
000320 d1 7c 9c bd 14 d8 79 3a 89 46 68 bd 5c 5c d4 bd
       -0.07640994 0.00095307943 -0.056707893 -0.10369179
000330 e6 4b 57 bd 3b f7 52 bd 41 ee d6 bd b1 00 85 bd
       -0.052562617 -0.05150531 -0.10494662 -0.064942725
000340 8d db c4 bd 37 a2 14 be e1 73 50 bc dd 69 2c bd
       -0.096121885 -0.14515005 -0.01272294 -0.042093147
000350 01 f8 33 3d cd 8f b3 bc 15 84 8b bd 0b 51 2a 3d
       0.043937687 -0.021919155 -0.06812302 0.041581195
000360 6b 93 8e 3c 87 10 04 bd 4c 97 24 3c 3e 80 e2 bc
       0.017404279 -0.032242324 0.010045838 -0.027649041
000370 5d bc b1 3c 05 e6 86 3c 40 47 2f 3b 35 26 92 3c
       0.021696264 0.016467104 0.002674535 0.017840484
000380 47 1c 04 3c 2b 41 31 bc 0c f3 9c bd 71 05 af bd
       0.0080633825 -0.01081876 -0.07663545 -0.0854596
000390 c4 97 12 bc 93 21 04 bd ed 6c 58 3d b7 32 70 bd
       -0.008947317 -0.03225858 0.052838255 -0.058642115
0003a0 b8 36 49 bd 74 97 9f 3c 12 a0 a2 3c f9 57 b2 bd
       -0.04912445 0.019481398 0.019851718 -0.08708186
0003b0 eb b3 33 be e3 cb b6 3c 08 50 3b 3d e2 4b 14 3d
       -0.17549102 0.022314018 0.04573062 0.03620518
0003c0 58 ac 92 bc d4 c8 17 bd c4 04 da bc a6 19 e0 bc
       -0.017904446 -0.03705676 -0.0266136 -0.02735598
0003d0 a8 6b b1 bd df 42 a2 bd b8 14 0a 3d 17 7b 97 3c
       -0.08663112 -0.07922911 0.033711165 0.018491311
0003e0 76 47 06 bc 75 53 b5 3c 84 41 f2 bd d6 b9 d1 bd
       -0.008195749 0.022134522 -0.11828902 -0.102405235
0003f0 92 8c 3f 3d cf 5e 14 bc 88 cd bd bd 9c dc 94 3d
       0.046764918 -0.009055807 -0.092677176 0.072686404

conv3.bias f4 [128]
000000 40 29 01 3c c6 5a 05 bb eb 23 11 bb b9 84 fe 3b
       0.00788337 -0.0020348295 -0.0022146653 0.0077672866
000010 ff ae cc bc b5 1d d5 bc 9d 8d 03 3d 35 8d a4 3c
       -0.024985788 -0.026015142 0.032117475 0.020086864
000020 0f 44 04 3d f1 b7 2e 3d 1e 8d 14 bd d8 e0 0e 3c
       0.03229147 0.04265589 -0.036267392 0.008720599
000030 0b 07 4c bb 58 25 ad bc 65 f2 91 bc b1 2c 54 bc
       -0.0031132128 -0.021135971 -0.017815778 -0.012950108
000040 12 6c 93 3b 65 f7 22 3d 13 bf 99 ba 2a 7d 8e 3b
       0.004498967 0.039786715 -0.0011729918 0.004348417
000050 37 df 82 bd 0c b8 6d bc 53 66 cb bb 7a 7c cc 3a
       -0.06390231 -0.014509212 -0.0062072664 0.0015601062
000060 e8 5c d1 3b ea 5a 57 bb e6 cb dd bc 4a 0d fd 3c
       0.006389249 -0.0032860585 -0.027074765 0.030890126
000070 b5 f2 93 bc ef d0 d5 3c 4a d1 f5 bc 4f 96 d3 bc
       -0.018060068 0.026100604 -0.030007023 -0.025828509
000080 54 bc ff 3c c7 87 43 ba 94 e0 5a bc 0e 8d 86 bc
       0.031217732 -0.0007458892 -0.013359208 -0.016424682
000090 5f 79 2e bd 39 17 28 3b c4 1c 7a bc a5 58 c8 3c
       -0.042596217 0.0025648607 -0.015265647 0.024456332
0000a0 20 d7 d0 bc 1d 32 94 bc d3 06 71 bd 62 79 46 bd
       -0.025493205 -0.018090302 -0.0588444 -0.048455603
0000b0 15 a7 06 bd d2 d9 36 bd 28 a6 d7 bc 59 12 ec bc
       -0.032874186 -0.044641323 -0.026324347 -0.028817343
0000c0 ed fa f9 3c a2 99 a1 bc 06 a4 20 bd c7 ee 8a bd
       0.030515159 -0.019726578 -0.039218925 -0.067838244
0000d0 d0 7a d2 bb 81 9e 59 bd c3 16 16 bd 8b 7f 18 bd
       -0.006423332 -0.053129677 -0.0366428 -0.03723101
0000e0 5b b1 90 bc fb 70 6a bd 8a 11 31 bd 68 11 f2 bb
       -0.017662695 -0.057236653 -0.043229617 -0.007387329
0000f0 15 a3 d9 3c ea 9e 22 bd 55 72 0a 3a 33 63 28 bc
       0.026567021 -0.039702334 0.0005281319 -0.010277557
000100 86 97 84 bc 4c 5b eb 3c a7 e8 98 bc 67 2a b3 3c
       -0.016185533 0.028730057 -0.018665625 0.021870805
000110 68 85 09 bd 92 15 be bb 78 26 a5 bc bb 7d fc bc
       -0.03357449 -0.005800911 -0.020159945 -0.030821672
000120 56 8a 03 3d 47 79 b2 3c cc c7 8b bb 8d 97 7a 3c
       0.03211435 0.021786345 -0.004265761 0.015294922
000130 67 8b 95 bc 5e 74 e6 bc 2a 25 b1 bb c6 3f bd bc
       -0.018254949 -0.02813166 -0.0054060416 -0.023101699
000140 1e 4c b3 bb 74 98 77 bd bb 29 d2 3b 63 d0 2a bd
       -0.0054717204 -0.060448125 0.006413666 -0.04170264
000150 51 21 3e 3c 3a 71 d9 3b 48 73 84 3a b5 fb 49 bd
       0.011604623 0.006635812 0.0010105157 -0.049312312
000160 d3 51 12 bd b9 d8 22 3c bb da d7 bc 20 ec 97 3b
       -0.035722565 0.009939366 -0.026349416 0.0046363026
000170 ab 7d 2a bd a9 b5 ed bb fc 22 fb bc ae 8a 1b bc
       -0.041623753 -0.0072543216 -0.03065633 -0.009493513
000180 e2 ea 0c bd 42 a4 ac bc 3f f5 0a bd e5 06 b2 3c
       -0.03440369 -0.021074418 -0.03392529 0.021731803
000190 cb 4b 10 bc 85 ef 23 bd 2e 51 f4 ba 32 55 1d bd
       -0.008807133 -0.040023346 -0.0018639916 -0.038411327
0001a0 3d 5f 58 bc d5 97 4e 3d 28 11 1f bd a5 d2 63 bd
       -0.0132063 0.050437767 -0.03883472 -0.05562081
0001b0 6a 6e f6 bc ff 96 84 bc 33 85 4e bd da 18 56 bd
       -0.030081946 -0.016185282 -0.050419997 -0.052269794
0001c0 e2 87 ca bc 4d 30 1e bb 3b fd 30 bd a0 d4 aa ba
       -0.024722997 -0.0024137676 -0.04321025 -0.0013033338
0001d0 d6 34 58 3a af c4 f2 bc e8 19 03 bd 76 7d 21 bd
       0.0008247619 -0.029634802 -0.032007128 -0.03942629
0001e0 5e 3a 55 3c fd 43 a9 3c 11 d1 8e bd b2 08 f1 3c
       0.013014404 0.020662302 -0.0697347 0.029423092
0001f0 5b c0 6a 3d d2 9b 8a bc 7f 80 9a bc ae 67 cd 3c
       0.05731235 -0.016920004 -0.0188601 0.025073852

fc1.weight f4 [10, 128]
000000 2e 58 42 be d0 3b 01 bc 82 5c 38 bd d8 0c d4 bc
       -0.1897895 -0.007887796 -0.045010097 -0.02588503
000010 0c 53 bb 3d 4e e1 52 bd 0a 10 1c bd 81 94 6a 3d
       0.09146699 -0.0514844 -0.038101234 0.05727053
000020 fa 35 32 be e6 65 c6 bc e9 22 9d bd ee 1a 16 be
       -0.17403403 -0.02421851 -0.07672674 -0.1465871
000030 45 69 9e bd f4 c0 a7 bc a4 0b 5c bd 04 16 5a bc
       -0.07734922 -0.02047775 -0.05372204 -0.013310913
000040 e1 b6 d8 3d ac 4e eb 3b b9 a7 de 3d 60 14 4b bd
       0.105817564 0.0071810093 0.10871834 -0.049579978
000050 c7 2d 26 bd 45 a9 c9 bc 16 ae 39 3c 38 f2 ca bd
       -0.040571 -0.024616847 0.011333009 -0.09909481
000060 e1 f8 a0 3c e2 d1 da bd 7f 28 7c 3b 68 cc 2c 3c
       0.019649925 -0.10684563 0.0038476286 0.010546781
000070 80 53 95 3d 1c 63 fe 3c c1 9f aa bd 2d 70 06 be
       0.07291317 0.031053118 -0.08331252 -0.13128729
000080 b3 5a 80 3d 3e f5 05 3c 71 3e 05 3e ad a9 fd 3c
       0.062672995 0.008176146 0.13012101 0.030964697
000090 35 e1 53 be 11 41 89 3d c0 d9 44 bd aa a0 24 bd
       -0.20691378 0.067018636 -0.048059225 -0.040192284
0000a0 fd 60 fb bd 0d 5b 9b bd 32 a5 fe bd 99 e0 95 3d
       -0.122743584 -0.07585726 -0.12433852 0.07318229
0000b0 f3 98 24 bd ad c2 75 3d 8a 94 04 3e 9d 53 83 3d
       -0.040184926 0.06000011 0.12947288 0.06412432
0000c0 1a 45 a4 bd 7c 02 8f 3c 89 60 27 be 3b 1b c0 b8
       -0.080209926 0.01745724 -0.16345419 -9.1603455e-05
0000d0 85 d9 91 bd 25 2c d9 3b ad 8e 56 3d a0 8b cd bc
       -0.07121567 0.006627577 0.05238216 -0.025090992
0000e0 9d a0 60 3d 3e 77 7c bd 9a 21 4f 3d ec 86 10 be
       0.054840673 -0.061637156 0.050569154 -0.14113969
0000f0 b2 9f 4d 3d 14 45 84 3c d6 b9 82 bd 45 27 ce 3c
       0.050201125 0.01614622 -0.06383102 0.02516521
000100 8a f0 25 be 22 d8 b4 3c fa eb a5 3d fe ca 33 be
       -0.1620504 0.022075716 0.081016496 -0.17557904
000110 fd 4b 5a 3d 30 72 46 bc c9 7b a2 bd ac bf 8d 3d
       0.053295124 -0.012112185 -0.079337664 0.06921324
000120 9e fa 13 bc fb 90 49 bd b5 5b 06 bd 02 9d 81 bc
       -0.00903192 -0.04921053 -0.032802302 -0.015821937
000130 37 a6 63 3c 2c 65 c4 bb 1b 33 8d 3d 35 69 8a bd
       0.013894609 -0.005993506 0.06894513 -0.06758348
000140 5b 3d 97 bd c0 17 91 bc 8f e1 a0 bd 99 8a 5c be
       -0.073847495 -0.01771152 -0.07855522 -0.21537246
000150 e7 ee b4 3d 77 fe 97 3d 6a e8 a6 3c 07 bb 2a be
       0.088346295 0.07421582 0.020374496 -0.16672908
000160 3e 0c 96 bd 7d 97 d3 3d b7 57 a7 3d d5 06 9e bd
       -0.07326554 0.103316285 0.08171027 -0.07716147
000170 62 65 cf 3d 3f a1 d5 bd d7 38 94 3d 8a 1d 23 3e
       0.10126759 -0.10431146 0.07237404 0.15929237
000180 56 11 61 b9 f3 9c 16 be b6 95 e7 3d 8c 1c af bd
       -0.0002146413 -0.14708309 0.11307852 -0.08550367
000190 ad 8a c7 3d 71 63 af 3d 31 69 40 be 6e 03 10 3c
       0.09743247 0.08563889 -0.18790127 0.00878988
0001a0 a4 0f 76 3c 98 15 0e be 20 37 9c bd 8f 7a a3 3c
       0.015018377 -0.13875425 -0.07627702 0.019955901
0001b0 d9 12 01 bd 7e 36 ad bd 51 9f 1a 3d 12 dd 00 be
       -0.031512115 -0.08457659 0.037749592 -0.12584332
0001c0 68 c0 0f 3e a4 51 57 be 23 1f 04 be ca d9 24 bd
       0.14038241 -0.21027237 -0.12902503 -0.040246762
0001d0 ac 68 5c bd ce 8d 5c 3d dc 3b f3 3d 86 58 85 3d
       -0.05381076 0.053846173 0.11876652 0.06511025
0001e0 e0 f3 99 bd 6a 07 9c 3d ab 9e 6a bd f2 5b 87 bd
       -0.075172186 0.076186016 -0.057280224 -0.06609334
0001f0 61 2d ab 3c c6 77 96 3d 8b 44 ed 3d bb 50 a7 bd
       0.020895662 0.07347064 0.11585339 -0.08169695
000200 b1 3d 01 3e 26 1f b0 bd 5d 8c f9 bb cd c8 a9 3d
       0.1262119 -0.08599691 -0.0076156096 0.08290253
000210 c3 b9 2a 3c ef ef 5c 3d 1c 5d 3f ba 52 da d6 3c
       0.010420266 0.053939756 -0.0007299946 0.02622715
000220 84 76 87 3c bb e6 02 3d c3 ad 4c 3d 5a 1c f8 3d
       0.016536005 0.031958323 0.0499704 0.12114783
000230 56 6f 64 bc 56 1d a9 3d f7 05 d9 3c 75 ac fd bd
       -0.01394256 0.082575485 0.026492102 -0.12386409
000240 a5 81 a1 bd db 2a d6 3c bd 18 55 be ef 70 86 3d
       -0.07886056 0.026143482 -0.20810218 0.06564509
000250 66 06 0b bc 4a 77 6c bd 85 13 2d bc 5b 4f 30 3d
       -0.008485412 -0.05773095 -0.010563736 0.04304443
000260 d7 1c 0b 3d e8 53 e6 3d 8e 93 8d bd 1f f8 94 3d
       0.03396305 0.112464726 -0.069129094 0.07273888
000270 6f d6 9b 3d b2 cb 2e be dc f7 26 3e a4 eb 50 be
       0.07609259 -0.17069891 0.16305488 -0.2040239
000280 23 17 79 bc 64 57 a6 bc 0f a8 2e be 71 8f 0a 3e
       -0.01520327 -0.020305343 -0.17056297 0.13531281
000290 2d 81 ac bd 64 bd 61 be fb da 74 bc f3 67 b4 bc
       -0.08423076 -0.22044903 -0.014944787 -0.022022223
0002a0 63 d5 b2 3d 7c fe 13 bd 12 86 3b bd 39 c3 63 bd
       0.087321065 -0.036131367 -0.045782156 -0.0556061
0002b0 ac 08 ae bd 97 36 13 3d 8b 36 b3 be bd e7 36 be
       -0.08497748 0.035940733 -0.3500255 -0.17861839
0002c0 fb 2d 02 3e b8 38 a0 3d 28 6f 14 3d 82 d0 59 bd
       0.12712853 0.07823318 0.03623882 -0.053177364
0002d0 cd 7c 9d 3d 06 18 d7 3c c9 fd c1 bd d9 da 86 bd
       0.076898195 0.026256572 -0.09472234 -0.06584711
0002e0 31 93 33 3c 00 d0 84 3d da e6 90 3b aa 53 e5 bd
       0.010960386 0.06484985 0.004422051 -0.11197598
0002f0 ce 0b 8a 3d 24 ef 8e 3c c3 ef 2d 3c 99 89 94 bb
       0.06740533 0.017448016 0.010616246 -0.0045330045
000300 71 49 75 bd fd c8 85 bd b2 ec b3 bd 33 01 fe bd
       -0.059884492 -0.06532476 -0.087853804 -0.124025725
000310 01 c2 1d 3e 18 57 9f 3d a7 09 c3 bd 75 97 10 be
       0.15406038 0.07780284 -0.095233254 -0.14120276
000320 d8 bf 64 bd 6e cf 5f 3d 45 14 ee bd 99 6a 0b 3e
       -0.05584702 0.05464118 -0.1162496 0.13614883
000330 d0 29 80 3d d6 fa c0 3c 3c 71 ee 3d 58 49 6f be
       0.06257975 0.023557108 0.116426915 -0.23367822
000340 8f 06 7f bb fb 57 bc bd a8 a9 24 be 63 fd b9 3d
       -0.0038913821 -0.091964684 -0.16080344 0.09081533
000350 62 b8 17 3e 55 7e f2 bd 9b d1 dd 3d ad b3 14 be
       0.1481643 -0.11840502 0.10830995 -0.14521666
000360 f3 2f 0e bd aa 06 66 be 0e de ed bc 92 88 4d be
       -0.034713697 -0.2246348 -0.029036548 -0.20071629
000370 23 3b 48 be 48 8f 9e 3d 81 33 0c bc 30 08 32 be
       -0.19553809 0.077421725 -0.008557201 -0.17385936
000380 44 38 92 bc 2c bd 9d bd 97 3d e5 3d 0b d9 d9 3c
       -0.017849095 -0.07702097 0.11193388 0.026592752
000390 41 13 4d be 4a 9f 23 be 3b 1e 61 be e9 ac 98 bd
       -0.20026876 -0.15978733 -0.21984188 -0.07454855
0003a0 b6 c7 68 3d 66 45 01 3d ed 25 8c bc 4a 2f f9 3d
       0.056831084 0.031560324 -0.017107928 0.12167223
0003b0 ec bc b0 3d 8a 7d 80 be d0 75 2a bd 47 15 36 3d
       0.08629784 -0.2509578 -0.04161626 0.044453885
0003c0 5f 32 cd bd a8 c8 18 bd 73 ba 9a be 02 e8 52 be
       -0.10019373 -0.037300736 -0.30220374 -0.20596316
0003d0 cc 18 61 bd c3 26 91 bc 0c cf 37 be 18 d1 7c bc
       -0.05495529 -0.017718678 -0.17950076 -0.015430711
0003e0 32 56 12 bd 2d 9d 52 3d d4 b3 fb 3d 50 44 1c bd
       -0.035726734 0.051419426 0.12290159 -0.038151085
0003f0 62 91 90 be 6c 5d dc bd 5b 2c ce bd d4 e9 8c be
       -0.28235918 -0.10760006 -0.10067054 -0.27522147

fc1.bias f4 [10]
000000 56 d9 80 bd 60 68 8f 3d 44 91 2b bd 19 75 89 bc
       -0.062914535 0.0700233 -0.041886583 -0.01677947
000010 f6 54 8b 3d 90 39 fe 3b 0b e6 07 3d d6 fb 2d 3d
       0.068033144 0.007758327 0.03317837 0.042476498
000020 57 a0 23 bd d2 7a 46 bd
       -0.039947834 -0.048456974
